lynn@lxps:~/proj/pepperoni-reinforcement$ clear; python3 -i example_rl.py 

Using TensorFlow backend.
/home/lynn/.local/lib/python3.6/site-packages/gym/logger.py:30: UserWarning: WARN: Could not seed environment <BHDEnv instance>
  warnings.warn(colorize('%s: %s'%('WARN', msg % args), 'yellow'))
_________________________________________________________________
Layer (type)                 Output Shape              Param #   
=================================================================
flatten_1 (Flatten)          (None, 34)                0         
_________________________________________________________________
dense_1 (Dense)              (None, 64)                2240      
_________________________________________________________________
leaky_re_lu_1 (LeakyReLU)    (None, 64)                0         
_________________________________________________________________
dense_2 (Dense)              (None, 64)                4160      
_________________________________________________________________
leaky_re_lu_2 (LeakyReLU)    (None, 64)                0         
_________________________________________________________________
dense_3 (Dense)              (None, 10)                650       
=================================================================
Total params: 7,050
Trainable params: 7,050
Non-trainable params: 0
_________________________________________________________________
None
__________________________________________________________________________________________________
Layer (type)                    Output Shape         Param #     Connected to                     
==================================================================================================
observation_input (InputLayer)  (None, 1, 34)        0                                            
__________________________________________________________________________________________________
action_input (InputLayer)       (None, 10)           0                                            
__________________________________________________________________________________________________
flatten_2 (Flatten)             (None, 34)           0           observation_input[0][0]          
__________________________________________________________________________________________________
concatenate_1 (Concatenate)     (None, 44)           0           action_input[0][0]               
                                                                 flatten_2[0][0]                  
__________________________________________________________________________________________________
dense_4 (Dense)                 (None, 128)          5760        concatenate_1[0][0]              
__________________________________________________________________________________________________
dense_5 (Dense)                 (None, 128)          16512       dense_4[0][0]                    
__________________________________________________________________________________________________
dense_6 (Dense)                 (None, 128)          16512       dense_5[0][0]                    
__________________________________________________________________________________________________
dense_7 (Dense)                 (None, 1)            129         dense_6[0][0]                    
==================================================================================================
Total params: 38,913
Trainable params: 38,913
Non-trainable params: 0
__________________________________________________________________________________________________
None
2019-04-22 22:35:45.883505: I tensorflow/core/platform/cpu_feature_guard.cc:141] Your CPU supports instructions that this TensorFlow binary was not compiled to use: AVX2 FMA
…
